…
    "val_interval": 500
  },
  "task": "ag",
  "transformer": {
    "d_ffn": 256,
    "d_model": 64,
    "dropout": 0.2,
    "enc_nlayer": 1,
    "nhead": 4
  },
  "vq": {
    "commitment_cost": 0.001,
    "ema": {
      "decay": 0.99,
      "epsilon": 1e-09
    },
    "init": "xavier_uniform",
    "use_ema": 0
  },
  "word_freq_thresh": 0
}


Loaded vocab from /home/yuerxin/discrete-text-rep/demo/ag_vocab
Loading token dictionary from /home/yuerxin/discrete-text-rep/demo/ag_vocab.
Vocab namespace tokens: size 30004
TransformerEncoderDecoder(
  #encoder
  (encoder): TransformerQuantizerEncoder(
    (embedding): Embedding(30004, 64, padding_idx=0)
    (pos_encoder): PositionalEncoding(
      (dropout): Dropout(p=0.2, inplace=False)
    )
    (encoder): TransformerEncoder(
      (layers): ModuleList(
        (0): TransformerEncoderLayer(
          (self_attn): MultiheadAttention(
            (out_proj): _LinearWithBias(in_features=64, out_features=64, bias=True)
          )
          (linear1): Linear(in_features=64, out_features=256, bias=True)
          (dropout): Dropout(p=0.2, inplace=False)
          (linear2): Linear(in_features=256, out_features=64, bias=True)
          (norm1): LayerNorm((64,), eps=1e-05, elementwise_affine=True)
          (norm2): LayerNorm((64,), eps=1e-05, elementwise_affine=True)
          (dropout1): Dropout(p=0.2, inplace=False)
          (dropout2): Dropout(p=0.2, inplace=False)
        )
      )
    )
    (quantizer): DVQ(
      (vq_layers): ModuleList(
        (0): VectorQuantizer(
          (_embedding): Embedding(256, 64)
        )
        (1): VectorQuantizer(
          (_embedding): Embedding(256, 64)
        )
        (2): VectorQuantizer(
          (_embedding): Embedding(256, 64)
        )
        (3): VectorQuantizer(
          (_embedding): Embedding(256, 64)
        )
      )
    )
    (pooler): Pooler(
      (project): Linear(in_features=64, out_features=256, bias=True)
    )
  )

  #decoder
  (decoder_layer): TransformerDecoderLayer(
    (self_attn): MultiheadAttention(
      (out_proj): _LinearWithBias(in_features=64, out_features=64, bias=True)
    )
    (multihead_attn): MultiheadAttention(
      (out_proj): _LinearWithBias(in_features=64, out_features=64, bias=True)
    )
    (linear1): Linear(in_features=64, out_features=256, bias=True)
    (dropout): Dropout(p=0.2, inplace=False)
    (linear2): Linear(in_features=256, out_features=64, bias=True)
    (norm1): LayerNorm((64,), eps=1e-05, elementwise_affine=True)
    (norm2): LayerNorm((64,), eps=1e-05, elementwise_affine=True)
    (norm3): LayerNorm((64,), eps=1e-05, elementwise_affine=True)
    (dropout1): Dropout(p=0.2, inplace=False)
    (dropout2): Dropout(p=0.2, inplace=False)
    (dropout3): Dropout(p=0.2, inplace=False)
  )

  (classifier): Sequential(
    (0): Linear(in_features=64, out_features=30004, bias=True)
    (1): LogSoftmax(dim=-1)
  )
)